captcha-train/digit_cnn.onnx (onnx, 15010 bytes, 3 tensors)

net.0.bias f4 [16]
-0.046860646 0.2719624 0.12157236 0.054999758 -0.20291236 0.12909782 0.069944635 -0.025739307
0.22327378 -0.2897404 0.37307015 0.10709873 -0.232417 0.3001712 0.27555725 -0.0072683343
00000000: f3f0 3fbd a83e 8b3e eefa f83d 6d47 613d
00000010: 42c8 4fbe 3832 043e 223f 8f3d 3ddb d2bc
00000020: e2a1 643e db58 94be 0d03 bf3e 9456 db3d
00000030: b9fe 6dbe 0ab0 993e d715 8d3e 352b eebb

net.3.bias f4 [32]
0.010304623 -0.03633445 0.0035219805 0.0379663 0.07236676 0.032328077 0.09868332 0.08249004
-0.00011968009 0.028075725 0.03743066 0.048540764 0.07631773 -0.024010088 0.025563616 -0.06794792
0.088394806 0.062467996 0.0095810685 0.087505795 0.07371834 0.05243094 0.0781632 0.032934908
0.057738613 -0.027674751 -0.020167079 0.09661757 0.12625518 0.111521915 0.027089221 -0.007981187
00000000: b9d4 283c 6fd3 14bd 07d1 663b 8d82 1b3d
00000010: 0635 943d 726a 043d 7b1a ca3d 8af0 a83d
00000020: c2fc fab8 10ff e53c e450 193d aed2 463d
00000030: 784c 9c3d ceb0 c4bc ca6a d13c 4728 8bbd
00000040: 5608 b53d 71de 7f3d eaf9 1c3c 3d36 b33d
00000050: a4f9 963d d3c1 563d 0714 a03d c1e6 063d
00000060: 537f 6c3d 29b6 e2bc 6e35 a5bc 6fdf c53d
00000070: 0a49 013e 9a65 e43d 37ea dd3c 86c3 02bc

net.9.bias f4 [10]
-0.08344757 -0.05769362 -0.029373804 0.04280325 0.0064814603 -0.014267337 -0.011637475 0.0663558
-0.045994923 0.063521735
00000000: 8fe6 aabd 2550 6cbd 55a1 f0bc 7652 2f3d
00000010: 6e62 d43b 8cc1 69bc 1cab 3ebc 8de5 873d
00000020: 2c65 3cbd af17 823d
