captcha-train/digit_cnn.onnx (onnx, 15010 bytes, 3 tensors)

net.0.bias f4 [16]
00000000: 8a62 0cbe 61a3 35bd 9b42 fa3d da2a b5bc
00000010: c16d 85be a601 343e b2ac bb3e 56b1 2fbc
00000020: e57b a43e c3dd 023e 5564 3b3d ff95 b83d
00000030: a03a 0dbe 9155 af3e da2d b13e 8bf9 28bc
-0.13709465 -0.044345263 0.12219735 -0.02211516 -0.26060298 0.17578754 0.36655194 -0.0107234325
0.32125774 0.12779908 0.04574998 0.090129845 -0.13791895 0.3424497 0.34605294 -0.010313402

net.3.bias f4 [32]
00000000: 52bc 853a 60f9 a63c c6de 8f3c 2b3a 3c3d
00000010: d381 28bc e063 9b3c 8836 80bd 7eb7 e8bc
00000020: c538 41bd 6bbc 563d 49e6 10bd af5d 013d
00000030: ac45 853d e99d f73c e289 32bd 48a8 5b3d
00000040: 7d13 27bd 91cb a03d 65a7 633b ead2 da3a
00000050: eab0 643d 4013 80bc 9835 db3d a11d fb3c
00000060: d47e 483c e34a c23d e941 7e3d 814e 97bc
00000070: 0d50 0abc 80ac 4f3d 3125 e63c f10f ac3d
0.0010203219 0.020382583 0.017562281 0.04595391 -0.010284859 0.018968523 -0.06260401 -0.028407808
-0.04717328 0.052425783 -0.035375867 0.031583484 0.065074295 0.030226665 -0.043588527 0.053627282
-0.04079007 0.07851327 0.0034737226 0.0016694937 0.05583278 -0.01563418 0.107035816 0.030653777
0.012237269 0.0948694 0.062074576 -0.01847005 -0.008441937 0.05070162 0.028093906 0.08401478

net.9.bias f4 [10]
00000000: ee3f 53bd e7d1 c73c ee2c ac3c 8523 7bbd
00000010: 230c 0bbd ed6b 5ebd 8b9b b43d 5e5d 113d
00000020: 6c7f 68bd d5dc 1bbd
-0.05157464 0.024392081 0.021017518 -0.06131317 -0.03394712 -0.054302145 0.0881873 0.035489433
-0.056762144 -0.0380524
